app/models/waveform_encoder.pt (torch, 921847 bytes, 4 tensors)

_orig_mod.encoder.1.weight f4 [256, 768]
00000000: 0aa0 843a eeb2 c2bc ae9f 18bd b6da c43c
00000010: 6f21 8abc 45c6 96bc 1693 e5bb 34bb 0dbc
00000020: 253f 5739 8a9e d33c f760 303a 3db6 603c
00000030: f969 b0bb 20b6 773c 0a0e 3e3d 4ec7 2d3c
00000040: b5c3 efbc 908e b1bc 434b 05bb 8e76 dbbb
00000050: 8d87 a73c 3e92 80bb c5d6 a9bc 86f1 91bc
00000060: 468a ee3c e61a efbc db27 1a3c c25f 5dbc
00000070: 228a ce3b aea0 f63b 252a 263c ee63 1abd
00000080: 2a7a 1ebc 2e82 283c 902f ce3c 422f 69bb
00000090: 9d73 8fbc f9c3 a83b d15c db3c 75b1 3d3d
000000a0: 514c 083b e257 653c 8f1a acbc 8da5 6abc
000000b0: 94bc e33b 0f28 263d 8bc2 cbbb 4daa 9fbc
000000c0: cbb7 75bc 5262 b53c 4f7c a63c 5a08 cd3a
000000d0: bda4 4c3c f118 e93c cc60 f1bc cdfe 6a3c
000000e0: d00c 083d 2111 863c 5e75 4f3c ee1c b1ba
000000f0: b148 aa3c 632e 763c adec c63c 9ace 8abc
00000100: bea3 6c3b d1f6 dc3c fdff a4ba cdf6 cebb
00000110: a983 53bc 4442 413b af23 e5bc c3a2 043d
00000120: 475b b6bb d9e7 38bc 5d59 27bc 2733 203a
00000130: 8fca 97bc dc74 47bd 1553 4dbb f16d bebb
00000140: 61d7 9ebc 946a 003b 4fd2 43bc b68c 0cbb
00000150: ffc7 40bc 2884 de3b d2f2 203d de4f 60bc
00000160: f839 50bc 452f 2bbb 5a06 95bb 52b7 883c
00000170: e177 98bc 436f a53c 89aa 933a 0d0d b0bc
00000180: f244 c8bc 9b94 d53c 43f6 e8bc a0b3 533c
00000190: 646e 36bd 7019 fa3c 157c 40bc 5c7d 1a3d
000001a0: 5bba bebc 3cee c93c 4d8b 5b3c 7f22 29bd
000001b0: a5ab 673b d42f a5bc 04a5 8c3b 147d acbc
000001c0: a90e 45bc feda 303d a95a b63c 70a5 9bbc
000001d0: 8e1f 833c be50 36bd 0e2c 8cbc b465 ae3b
000001e0: 86f9 27bb 3488 9bbc de4d 07bc 8058 7bbc
000001f0: 01e7 a53c af28 2d3c 0932 31bb f4f6 10bd
00000200: 1d5a eebb 055d b1bb 7bbb bf3b 1145 573c
00000210: 8c3f 473c 5a17 babb 4fb5 453c 481e 0f3c
00000220: 0619 6a3c 1dd4 b23c a992 463c c4a4 b43c
00000230: b800 283d 01b7 46bc 6834 bc3c f9ce e43b
00000240: aad8 a53c 84fc 563c 1eb6 d93b 5613 ea3b
00000250: 5202 efbc 9b1d 203c ee1d ddbc 294c c7bc
00000260: b5ed 1d3b 9dbe 993c 3e6d a9ba deeb 96bc
00000270: 9ef2 e63c 333c 8a3b 7cab 80bc 64ed e539
00000280: 5637 abbb 4ceb febc 562a a3bc 664d 3fbc
00000290: 8b6e d93c d331 b43b c99e 5ebb 03f2 69bc
000002a0: b9df 1fbc 5244 b4bc 5c9c b039 e629 9e3c
000002b0: b3f5 9abc c236 91bc 5704 0b3c 4ced a23a
000002c0: cc43 123c 69e8 bdbc bfd7 0bbc 052f 983b
000002d0: 59c9 a93c 66e2 1abc d8dc be3c 323f 85bc
000002e0: 4aac 8fbc 502e 2abd 7f8e 0d3b 2264 bcbc
000002f0: 5f94 a5bb c6be 09bd 0d1d 4c3c 4701 30bd
00000300: b9e8 0abb 0c2f 993c abc7 7fbc 3317 383c
00000310: 932f 2abd 98bf 23bd c76e 3d3d 7299 89bb
00000320: 8b04 f1bc 0721 c5bc 07e1 71bc 7ec5 df3b
00000330: a227 00bc b17a 743c e2c4 c83c d040 59bc
00000340: 1c62 a03c c22b 03bd b881 fcbc 9a17 acbc
00000350: 23f1 7d3c 642f 813c b497 b5bc ab85 69bc
00000360: 1eb5 b53c 56ad 9fbc 140f ac3a fd62 c63b
00000370: 4bdb c63b 95c9 1bbd c805 f0bc 6fab ee3c
00000380: 0381 19ba 376f 7d3c 80dd 073b 60e3 babb
00000390: a5bb 26bc 13a4 033c a6d0 9ebb c3b2 27bd
000003a0: 21d9 f2bc a9e6 123d 8102 d7bc 6329 fab9
000003b0: 7d08 ffbb 5839 063d cfc6 dfbc b38a 673c
000003c0: d69b 15bc 3877 973c 7d1a 29bd a34c 01bd
000003d0: 8c45 2e3c e2b1 3cbc 8bb3 323c cbd8 63bc
000003e0: cf95 483c f140 acbb 8749 b7bc bfb1 303c
000003f0: 1590 5b3c 4ff7 d23c 1ed2 26bc 91a0 0c3b
0.0010118496 -0.023766961 -0.037261657 0.02403007 -0.016861646 -0.01840509 -0.0070060594 -0.00865059
0.00020527521 0.025832433 0.0006728316 0.013715324 -0.0053837267 0.015119106 0.046400107 0.0106066
-0.029268125 -0.021674424 -0.002033905 -0.0066974824 0.020450378 -0.0039236834 -0.020732293 -0.017815363
0.029118668 -0.02918763 0.009408916 -0.0135116 0.006303088 0.0075264787 0.010141884 -0.037692957
-0.009672681 0.0102849435 0.025169164 -0.0035581146 -0.017511183 0.005150315 0.026777657 0.046311814
0.0020797441 0.013998004 -0.021008758 -0.014321697 0.0069499705 0.040565547 -0.0062182597 -0.019490385
-0.014997433 0.02214161 0.020322947 0.0015642748 0.012490449 0.028454276 -0.029465102 0.014342976
0.033215344 0.01636559 0.01266226 -0.001351265 0.020786615 0.015025708 0.024282778 -0.016944218
0.003610834 0.02697316 -0.0012588497 -0.006316042 -0.012909808 0.002948896 -0.027971117 0.032381784
-0.0055650803 -0.011285746 -0.010214177 0.0006111138 -0.018529205 -0.04869543 -0.0031330038 -0.005811446
-0.01938981 0.0019594776 -0.011951997 -0.0021446175 -0.011766433 0.0067906566 0.03929407 -0.013690917
-0.012709133 -0.0026120704 -0.0045478763 0.016688976 -0.01861185 0.020194655 0.0011266033 -0.021490598
-0.024446938 0.026071837 -0.02843774 0.012921244 -0.04453887 0.030529708 -0.011748333 0.03771721
-0.02328222 0.024649732 0.013399911 -0.041292664 0.003535011 -0.020164408 0.0042921323 -0.021055736
-0.012027421 0.043177597 0.022260027 -0.018999785 0.016006257 -0.044510596 -0.01711085 0.0053221826
-0.0025630905 -0.018985845 -0.008258311 -0.015340924 0.020251753 0.010568782 -0.002703788 -0.035391763
-0.007273926 -0.0054127 0.005851207 0.013139025 0.012161147 -0.0056790533 0.012067153 0.008735247
0.014288193 0.02182966 0.012119927 0.022051223 0.04101631 -0.0121285925 0.022974208 0.006982681
0.020244915 0.013121728 0.0066440245 0.0071434183 -0.029175911 0.0097726835 -0.02699181 -0.024328308
0.0024097983 0.01876765 -0.0012926233 -0.018423017 0.02819186 0.004218602 -0.01570677 0.00043855153
-0.0052251024 -0.031118058 -0.019917648 -0.011676168 0.026541969 0.0054991036 -0.0033969155 -0.0142788915
-0.0097579295 -0.022005234 0.00033685833 0.019307088 -0.018915987 -0.017726306 0.008484921 0.0012430339
0.008927297 -0.02318211 -0.008535325 0.004644277 0.020725893 -0.009453392 0.023298666 -0.016265485
-0.017538209 -0.041548073 0.0021599827 -0.022996966 -0.0050530876 -0.0336292 0.012458098 -0.04296997
-0.0021195842 0.018699192 -0.015611569 0.011236 -0.041549277 -0.03997764 0.046248224 -0.0041992003
-0.029421112 -0.0240636 -0.014763123 0.006828963 -0.007821949 0.01492183 0.024507944 -0.013260081
0.019578032 -0.032024153 -0.030823573 -0.021007348 0.015499386 0.015769668 -0.022167064 -0.01425306
0.02218109 -0.019491833 0.0013127052 0.006054281 0.006068622 -0.03803404 -0.029299632 0.02913448
-0.0005855711 0.01546841 0.002073139 -0.0057033747 -0.010176574 0.008034724 -0.00484665 -0.040941965
-0.02964455 0.035864506 -0.026246311 -0.0004771455 -0.0077829943 0.03276953 -0.027316479 0.01413219
-0.009131392 0.018489465 -0.041285027 -0.031567227 0.010636698 -0.01151702 0.010907064 -0.013906668
0.012242748 -0.005256765 -0.022373928 0.0107845655 0.013401051 0.025752692 -0.010181932 0.002145801

_orig_mod.encoder.1.bias f4 [256]
00000000: 3d28 af3c f790 063d 721f b03a 1489 bebc
00000010: 5bd8 0abc 7e1c ebbc 251e 2a3d b2df 42bc
00000020: 71c6 843c 6cc8 e93c 07f3 70ba 4705 07bd
00000030: 711c 5239 672b 8dba eac0 cfbc 29fd be3b
00000040: cd24 0cbc 3b4a b8bc 803b 333d e8cf 69bc
00000050: 9099 fabb e568 893b d58a e9bb 998c 253d
00000060: 0db7 e8bb 7a35 873c 9fa1 46bc 8af4 a23c
00000070: 63c5 7e3c 2504 e93c 57f7 033c 1d71 293c
00000080: d44a 163c f29c b2bc 47df d93c 0e77 923c
00000090: ad13 463c ccde 1b3b adcd e53c 0e08 f3bc
000000a0: aff5 12bd e440 f83b 76c9 49bc ce26 103c
000000b0: 3123 a83b 7883 52bc fe9d 88bc e881 98bc
000000c0: d3ef 33bb da5c e43c 2146 09bd 0eac ae3c
000000d0: e41a 5f3c 32dd 8d3c 1d4e bebc 6fa7 1fbc
000000e0: 66bc b1bb d828 31bd 9ad4 8a3c 3f88 a63c
000000f0: 1829 17bc 728f a83c a243 393c 6555 42bc
00000100: d727 1b3d a0d9 083d 0a65 e5bc 1fbb 20bb
00000110: 6bab 1c3d feb0 1e3d 2a4b d73c 807a 463d
00000120: e692 4abd 0b1f f9bc c2c5 baba d387 12bb
00000130: e828 9dbc db2c cabc 5239 21bd 9594 ecb9
00000140: b3f5 593c 6c19 413d 765e 053a a59f 99bc
00000150: 3ecc 2fbc 8e14 2cbd 5a7b 21bd 9cd5 b33c
00000160: d4fc 52bc 9f5a debc a64c 83bc 26de 753c
00000170: 7126 063d 302d dfbb 4ef3 95bb 21d1 62bc
00000180: 386a 05ba 2875 d63c 6303 273c e1c1 d1bc
00000190: 6425 88bc ce67 353b dced 88bb b963 efbc
000001a0: fc0b a8bc ae5c ce3c 5f3d 853c 7944 32bd
000001b0: 94f9 ecbb ad44 663c 11fc 47bc 14a9 033d
000001c0: dbbc 413d 5926 bc3c a488 9b39 ff93 57bc
000001d0: 1e09 643c 7c25 0e3c 37e8 06bd 9e77 cb3c
000001e0: 8d89 113c 08bd 503c daf4 d5bc d554 893c
000001f0: cbe9 b0bc ca17 e73b 8e0e 09bd 01ff 2d3c
00000200: 6691 37bc 50a8 8bbb abdb 0a3c 8412 95bc
00000210: c725 86bc b3f2 9b3c cde5 cd3c 1791 a6bc
00000220: d670 45bd 93e8 313a 46c4 6cbc 19f5 6abc
00000230: fc65 07bd 3db8 7ebc f951 f5bb 059b f43c
00000240: 22b1 4b3c c673 d0bb d571 bb3c c176 22bd
00000250: 3dcc 673b 80f7 a93c 5c8a ef3c c72b 99bb
00000260: 8757 12bd e7fe eebc 76cc 973c ce18 bb3c
00000270: 3f6d eeba 1f00 3dbc 0550 babc 7db6 6cbc
00000280: 8198 e4bb 8073 81bc a177 afbc 5ed6 df39
00000290: 94c7 7c3b 533b f3ba d699 3f3c 3ede 173c
000002a0: e3f1 6c3c ee22 b8bb 268a 98ba 7b29 e33a
000002b0: 432b ba3c 03f7 e2ba 0c90 233d c6cb f53b
000002c0: fce5 2fbc 993e 3dbd c8ed 943b f661 e53c
000002d0: 23c1 eb3c 53e5 893b 991e 103d 89a1 bf3c
000002e0: e375 e03c b910 3fbc 08e5 1c3d 0caf b3bc
000002f0: b095 f8bc b94d 98bc 605b a5bc 8b17 90bc
00000300: 756f c0bc 13fd 1abb 53b4 f4bb 3d5d 003c
00000310: 87e0 05bd 42b0 0fbd 8122 743c c694 d3bc
00000320: af3d 4d3c 948c 71bc 73f5 d4bc 67a2 efbc
00000330: 0b96 513c e2fb ea3c 9abe aabc 6d3a 60bc
00000340: 9be9 45ba 33ee f13b 463f 81ba f839 e9bb
00000350: c609 4ebc ef3d 01bd 73bf a83c 7d0f 943c
00000360: 5e32 f5bc 7660 e53c ebc7 ea3c be59 aabc
00000370: d515 17bc 9e59 af3c f380 4cbc 0210 01bd
00000380: cea3 e1bc f0ad 203d 8135 93bc 6d38 30bd
00000390: 954e 1a3d ad0e 6cbc 3696 223c 1867 82bc
000003a0: a729 3539 1460 b9bb b10f 813c 65fd c63b
000003b0: 23a5 8cbb e6f6 d7ba f307 023d 9007 85bb
000003c0: 0893 9f3c 55b6 f239 789e a7bc adfd fcba
000003d0: 28fd 6eba 517c 2cba 43e9 393d 84b3 be3c
000003e0: 47ae 473c e0aa 67bc c9a7 823b 904f 413b
000003f0: 4534 99bc 4a04 1abd bac7 8c3c c0ad bc3c
0.021381492 0.032853093 0.0013437106 -0.023258723 -0.008474435 -0.02870011 0.041532654 -0.011894153
0.016207905 0.028537951 -0.00091914873 -0.032964017 0.00020037756 -0.0010770381 -0.025360543 0.005828519
-0.008553696 -0.022496333 0.043757915 -0.01427076 -0.0076477006 0.0041934126 -0.007127146 0.040417287
-0.0071018995 0.016504992 -0.012123494 0.019891996 0.01554999 0.02844436 0.008054576 0.01034191
0.009173114 -0.021803353 0.026595725 0.017879035 0.012089652 0.002378392 0.028052175 -0.029666927
-0.035878833 0.007576095 -0.012316098 0.008798314 0.0051311483 -0.012848727 -0.016676899 -0.018616632
-0.0027456179 0.027876306 -0.033514146 0.021322276 0.013617251 0.017317388 -0.023230607 -0.009744509
-0.00542407 -0.043251842 0.01694708 0.02032864 -0.009226106 0.020576213 0.011307629 -0.01186118
0.03787979 0.03341067 -0.02800228 -0.0024525595 0.038249414 0.03874301 0.026280958 0.04845667
-0.0494565 -0.03041031 -0.001424961 -0.002235879 -0.019184545 -0.024679592 -0.039361306 -0.0004512413
0.013303208 0.047143385 0.0005087623 -0.018752882 -0.0107298475 -0.04201179 -0.039424278 0.021952443
-0.012877662 -0.02714282 -0.01602776 0.015006578 0.032751504 -0.0068108067 -0.0045761233 -0.0138438055
-0.0005089375 0.026178911 0.010193679 -0.025605144 -0.016619392 0.002768028 -0.0041787457 -0.029222356
-0.020513527 0.025190677 0.016264616 -0.043522332 -0.0072319005 0.0140544595 -0.012206093 0.032143667
0.047299247 0.022967504 0.0002966571 -0.013157844 0.013918189 0.008675929 -0.0329363 0.024837311
0.008882892 0.012740381 -0.02611773 0.016764084 -0.021595856 0.0070523964 -0.033461146 0.01061988
-0.011204099 -0.004262008 0.0084752245 -0.018197306 -0.016375436 0.019036626 0.025133992 -0.020332856
-0.04820331 0.00067866704 -0.014451092 -0.014340662 -0.033056244 -0.0155468555 -0.0074865785 0.029859075
0.0124323685 -0.0063614575 0.022881428 -0.039664034 0.0035369538 0.0207479 0.02924078 -0.004674408
-0.035728004 -0.029174281 0.018530112 0.022838976 -0.0018190517 -0.011535673 -0.022743234 -0.0144478055
-0.0069761877 -0.015802145 -0.021419348 0.0004269359 0.0038571106 -0.0018557109 0.011694392 0.009269295
0.014461967 -0.0056193983 -0.0011637851 0.0017331088 0.022725707 -0.0017316047 0.039932296 0.0075010983
-0.010735985 -0.046202276 0.0045449473 0.028000813 0.028778618 0.004208246 0.03518543 0.023392456
0.027399963 -0.011661702 0.03830436 -0.021934055 -0.030344814 -0.018591749 -0.020185173 -0.017589351
-0.023490647 -0.002364938 -0.0074677854 0.00783473 -0.03268483 -0.035080202 0.0149008045 -0.025827777
0.012526914 -0.014742989 -0.025995946 -0.029252244 0.012792121 0.02868456 -0.020842839 -0.013685805
-0.00075497635 0.007383132 -0.0009860776 -0.007117506 -0.012575572 -0.031553205 0.020599103 0.018073792
-0.029931244 0.028000098 0.028659781 -0.020794746 -0.009221514 0.021405037 -0.012481916 -0.031509407
-0.027543928 0.03922838 -0.017969849 -0.04302256 0.037672598 -0.014407796 0.009923508 -0.0159183
0.00017277022 -0.0056572054 0.015754553 0.0060726875 -0.004292147 -0.001647678 0.031745862 -0.0040597394
0.01947929 0.00046293685 -0.020461306 -0.0019301675 -0.0009116703 -0.0006579804 0.04538847 0.02327896
0.012187547 -0.014139861 0.0039872867 0.0029496886 -0.018701682 -0.037601747 0.01718508 0.02303207

_orig_mod.encoder.3.weight f4 [128, 256]
00000000: 2af6 1b3c dd33 543c d13c 563d d12d 3e3d
00000010: e1b6 48bd d52d 513c bb2e 3fbd b5f3 85bd
00000020: 7f57 063d 5c0e 073c a197 19bd be9e 28bd
00000030: c98c f33c 1776 0d3d 7475 0fbc 3b24 4b3d
00000040: 959a 1b3d 4459 393d d649 d83c d0e8 7d3d
00000050: 0ba1 e63b 8d0b 4ebd 5ad8 99bc 613b 553d
00000060: 5c19 8c3c 24a1 0bbd cf72 47b9 23ab b83b
00000070: bef2 47bb bc95 093d 9480 0c3d 21fa a7bc
00000080: a144 ac3c 6438 433d 20d1 b6bc 503c 4e3c
00000090: e027 6e3d eea0 63bd 06f7 5e3d a432 aabc
000000a0: 2cd3 c53c ed73 22bb 9f05 30bc 3acc 1e3c
000000b0: 846b 9bbc b6ac 70bc d29f 81bd 4feb 8abc
000000c0: c257 483c 3db8 cd3c 54f3 e8bb 01e2 813d
000000d0: c4ce 88bc d3e5 03bd 8b10 7a3c 55b9 29bd
000000e0: 2542 6abd 43f5 0f3d 3fd0 253d 0565 bb3c
000000f0: d4a2 27bd 6b99 e23c c025 80bc fdfc 4dbd
00000100: 753e 29bc c7f9 0f3d 0e2e c43c a4d9 ff3b
00000110: 68d0 fd3c 142e 1a3d 8004 833c 23f4 0ebd
00000120: cde6 153c b747 2c3d ff4b 473d 9d7d 8c3c
00000130: 0077 86bb 8b56 9d3c fd89 493d 460e c8bc
00000140: 7489 7ebd 421c 6ebc b79a d7bc 35be 8dbc
00000150: 2198 34bd f57a 053d b1e9 923c a1b5 153d
00000160: 27eb 3fbd 1656 ce3b a433 5abc f0ea d0bb
00000170: 6b31 423a a6d7 913c b6b7 0c39 6d3f 4dbd
00000180: 71b4 5abd 17fb 52bd 8e95 893c effd a63c
00000190: adc6 36bb a717 4abd 86b5 59bd fdc6 493d
000001a0: 79e9 403d c0ad 1cbd 7b8d 203b c18e b53c
000001b0: be8b 66bb 123b 8b3b da86 93bc 6ac0 5f3d
000001c0: ac37 54bd f917 73bb 3f81 b4ba 3e18 a93b
000001d0: 4ae9 813c 6aff a8ba 2090 173d a063 0cbd
000001e0: f3bf d33c 4878 953d 3882 413b 7a85 3bbc
000001f0: 61d8 19bd 7b17 04bd 6967 23bd fb7c 523d
00000200: 452c a1bc f1ce 68bd b4de 6fba e3c7 0e3d
00000210: 0140 eabc 3e46 42bb 9bb6 46bc 940d 5d3d
00000220: 35dd 2d3d 437a 33bc b606 16bd e117 95bc
00000230: 1300 db3b 4b64 41bd 33b5 673d 9f58 393d
00000240: 5f5e 36bd 952e 323d eb4c 8fbb b732 75bd
00000250: 57c1 bcbc c9ec 1a3d 9a3f 013c 9b16 b5b9
00000260: 1808 46bd 2e25 77bd 29b0 c7bc 0c8a 33b9
00000270: cafb 54bd bf8c 6ebc 87f8 b53b 99b8 55bd
00000280: c542 ff3c 7e44 ac3b d279 283c 553b 313d
00000290: 5bac 69bd 4c39 f63c 0308 42bd 7151 bc3b
000002a0: a449 8bbc e4f7 30bc 459c c9bb 6322 923c
000002b0: 7825 09bd 0658 4eba 9755 38bd 1df4 223d
000002c0: d4e0 76bc ebe9 2abd c11a 003d b788 febb
000002d0: ee3e 9d39 8c79 53bc 7565 da3c 2a0c 263c
000002e0: 1829 09bd 6a5f 543d 6b65 273d b24e 3c3d
000002f0: 1737 8bbc 401d 7d3c bd5d 03bd 196c 2abc
00000300: 34a2 063d f019 b0bc 8427 52bd 663c 2b3d
00000310: 86e7 7c3c b847 493d c8d9 623d 94d1 9e3c
00000320: a158 2c3d 1460 53bd 9fb1 40bc ff47 bbbb
00000330: 3438 71bc 1275 3dbd 853e 543d c60e bf3c
00000340: dbef 70bc a8d8 24bd 03e3 67bc 8f15 d0bc
00000350: 08a7 d2bc 1edc 083d f26a 53bc 58cb d2bc
00000360: 8b32 77bb ad6b 4cbd 45c9 ed3c d338 bc3c
00000370: f0f6 033d edd8 423d 9d38 4c3d 436b dbbc
00000380: 1c58 66bc 94a2 983b 47cd 743b ba90 dd3b
00000390: cf1b 623b dc4a 5ebd ddef f33c 17a9 693b
000003a0: aa58 23bd e07b 493c 8786 083d 4469 613d
000003b0: 5d94 da3c b1f0 453d f006 a43c 44cd 093d
000003c0: 3260 ecbb c61b 0cbd 67f5 13bc feb8 07bd
000003d0: a871 f83c e009 13bd 435f e1bc 2194 703c
000003e0: c530 d43c 9681 8ebc f003 0bbd 4f96 8b3d
000003f0: c518 47bd 44b9 efbb 7819 c2bc 8f73 193d
0.009519139 0.012951818 0.052304093 0.046430413 -0.049002532 0.012767275 -0.046675425 -0.06540624
0.032798287 0.00824317 -0.03749812 -0.041167013 0.029730218 0.034536447 -0.00875603 0.0495951
0.037989218 0.045251146 0.026402395 0.061989605 0.007038241 -0.050303984 -0.018779922 0.05205858
0.017101936 -0.034089223 -0.00019020888 0.0056356355 -0.0030509676 0.033590063 0.03430231 -0.020505013
0.021028819 0.0476612 -0.022316515 0.012587622 0.058143497 -0.055573396 0.0544348 -0.0207761
0.024148546 -0.0024788335 -0.010743528 0.009692246 -0.018972166 -0.014689615 -0.063293114 -0.016957907
0.012227954 0.025112266 -0.007109085 0.06341935 -0.016700156 -0.0322016 0.015262733 -0.041436512
-0.057191987 0.03514601 0.040481802 0.022875318 -0.04092677 0.027661046 -0.015643 -0.050290097
-0.010329832 0.035150316 0.023947742 0.007807927 0.030983165 0.0376416 0.015993357 -0.034900796
0.0091492655 0.04206058 0.04865646 0.01714974 -0.0041035414 0.019206306 0.04920386 -0.024420869
-0.062142804 -0.014533104 -0.026318891 -0.017302612 -0.044090394 0.032587964 0.017933698 0.036550168
-0.046855118 0.0062968833 -0.013317976 -0.006375663 0.00074078765 0.017803025 0.00013419878 -0.050109316
-0.05339474 -0.05150899 0.016794946 0.020384757 -0.0027889416 -0.049338963 -0.05315163 0.049262036
0.047097657 -0.03825164 0.0024498391 0.022162797 -0.0035178508 0.004248985 -0.018008638 0.05462686
-0.051810905 -0.0037093146 -0.0013771428 0.0051603606 0.015858311 -0.0012893502 0.037002683 -0.034274697
0.025848364 0.072983325 0.002952708 -0.0114453975 -0.03755987 -0.032248955 -0.03989354 0.051388722
-0.01967443 -0.05683798 -0.0009150312 0.034858596 -0.028594973 -0.0029643918 -0.0121284975 0.053968027
0.042447288 -0.010954442 -0.036627494 -0.018199863 0.0066833585 -0.047214787 0.05656929 0.04525053
-0.044523593 0.043501455 -0.004373183 -0.05986282 -0.02304141 0.037823472 0.007888699 -0.00034539853
-0.048347563 -0.06033819 -0.024375992 -0.00017122197 -0.051997937 -0.014559924 0.0055533084 -0.052178
0.031159768 0.0052571883 0.0102829505 0.043269474 -0.057049137 0.030056618 -0.04737092 0.0057470133
-0.017002888 -0.010801289 -0.006152662 0.017838662 -0.033483 -0.0007871393 -0.0450035 0.039783586
-0.015068252 -0.041726988 0.031275515 -0.0077677625 0.0002999226 -0.012907397 0.026659707 0.010134736
-0.033486456 0.051848806 0.040868204 0.045973487 -0.016994042 0.015448868 -0.032071818 -0.010401749
0.032869533 -0.021496743 -0.051307216 0.041805647 0.015436059 0.049140662 0.055383474 0.019387044
0.04207671 -0.0516053 -0.011761098 -0.0057153697 -0.0147228725 -0.046254225 0.051817436 0.023322474
-0.0147056235 -0.040245682 -0.014153245 -0.025400905 -0.025714412 0.033413045 -0.012903916 -0.025731727
-0.0037719335 -0.049907375 0.029026637 0.022976315 0.03221792 0.047570158 0.049858678 -0.026784545
-0.014059093 0.0046580527 0.00373538 0.0067616375 0.0034501438 -0.05427061 0.029777462 0.0035653764
-0.03987948 0.0122976005 0.03333142 0.05503203 0.026682073 0.048325244 0.02002284 0.033643022
-0.007213616 -0.034206174 -0.009030676 -0.033135407 0.030327633 -0.03589809 -0.027511245 0.014683754
0.025902161 -0.017395776 -0.033939302 0.068157785 -0.048607606 -0.0073157866 -0.023693785 0.03746372

_orig_mod.encoder.3.bias f4 [128]
00000000: 6839 453c 01cc 92bd 070c 06bc 4817 873d
00000010: d1de f9bb 9e9d bd3c bf0a 52bd 8641 933c
00000020: deff ccbb 8128 cbbc 8999 d8bc f5ee 8d3c
00000030: 5c25 3a3d 7b42 543d 6b7b 87bd c38f b1bd
00000040: 8709 433d 68bb 20bd ad69 28bd e369 03bd
00000050: 1bae 17bd 06e4 9a3c 0e9c 6bbc 4eb8 6b3c
00000060: 7e58 70bd 1f9b 08bd ab2f a23d 8b27 9b3b
00000070: b0ae 6b3c a620 923d 12d0 cd3c 1930 2f3d
00000080: 7603 41bd 1e75 1bbd bfd0 3e3d 3ab4 5bbc
00000090: c7c9 bf3c 87db 8a3d d3b1 30bd 5f0b d13c
000000a0: da7a 16bc 7c28 0d3d 9147 cd3b 8119 0f3d
000000b0: 51ad 943c 4c3b 9d3b e860 643c 846b b7bb
000000c0: ba84 08bc c292 4a3c 5cd9 22bd 009f 533d
000000d0: fe7c 983d 9787 4fbd 77ab 1abd add6 aebd
000000e0: 2bbf 533d 7466 4c3d 4e18 123d 7907 583d
000000f0: abe8 1f3d c5e9 24bd c443 c53c a498 9dbd
00000100: fd87 133c d999 18bc 571c ecbc 1e5c 3ebb
00000110: 904e 4b3d 6ee8 debc ab69 6f3b ca4e 9e3b
00000120: 93a3 08bd 7d34 15bd 46f6 443d a64c 143d
00000130: 0313 f43c 969d 0fbd 17b6 8f3c 5685 32bd
00000140: 05fd 79bd 7569 483d 1476 22bd 92cd 50bd
00000150: 3079 e4bc d6f8 21ba b2ee c53c 4c6a cfbc
00000160: 424f 4cbd 1464 553d 77b2 cb3c a3b0 90bd
00000170: 2e79 d93c 94b0 713d d7bd a13c 156a 4b3b
00000180: 9817 90bd 6460 553d b3e0 8e3d 180e 60bd
00000190: 57f2 afbc 6080 693d 5b7d 8e3d 1f1e 923d
000001a0: 0df9 f33c d3a5 353d a2ab 943d 0c2c 0abd
000001b0: c337 45bd 81c9 09bd 9275 91ba fe2e 10bd
000001c0: 1d7b dabc 8978 dfbc e20e 2f3d 85aa 363d
000001d0: 25e7 babb 6207 76bd 8f58 a43b facc efbc
000001e0: 0207 77bd 418c 243d 2b1e 65bd f655 83bd
000001f0: ce08 36bc 0e0e 32bd 56ad 1c3d ade7 90bc
0.0120376125 -0.07167817 -0.0081815785 0.065962374 -0.0076254387 0.023146447 -0.05127978 0.01797558
-0.0062560877 -0.024799587 -0.026440399 0.017325858 0.045445785 0.051821213 -0.06615337 -0.086699985
0.047616508 -0.039241225 -0.041116405 -0.032083403 -0.037031274 0.018907558 -0.014380468 0.014387203
-0.058678143 -0.03335106 0.07919248 0.0047349385 0.01438491 0.071351334 0.02512363 0.04277048
-0.04712244 -0.03795349 0.046585795 -0.013409669 0.023411645 0.06780153 -0.043138336 0.025518117
-0.0091845635 0.034462437 0.006264635 0.03493643 0.01814905 0.0047983285 0.01393912 -0.0055975337
-0.008332426 0.012364091 -0.03975807 0.051665306 0.07445715 -0.050666418 -0.037761178 -0.0853704
0.051695984 0.049902394 0.03566771 0.0527415 0.03904025 -0.040262002 0.024080165 -0.076951295
0.00900459 -0.009314024 -0.028822107 -0.0029046605 0.04963547 -0.02721044 0.003653149 0.0048311697
-0.03335912 -0.03642701 0.048086427 0.03620591 0.029794222 -0.035062395 0.017542882 -0.04358419
-0.061032314 0.048928697 -0.03966339 -0.050977297 -0.027889818 -0.0006178742 0.02416167 -0.025319241
-0.049880274 0.052097395 0.024865372 -0.07064941 0.02654704 0.05900629 0.019743843 0.0031038572
-0.0703575 0.05209388 0.06976452 -0.05470094 -0.021477861 0.057007194 0.069575034 0.071346514
0.029781843 0.044347595 0.07259299 -0.033733413 -0.04814888 -0.033639435 -0.0011097661 -0.035201065
-0.026670033 -0.027279155 0.042738803 0.044596214 -0.005703824 -0.060065635 0.00501544 -0.029272545
-0.060309418 0.04017282 -0.055936974 -0.0641288 -0.011110498 -0.043470435 0.038251244 -0.017688597
